my_model.pth (torch, 208791 bytes, 6 tensors)

weight f4 [64, 784]
0	0x3c88bb54	0.016690888
1	0x3cb4e096	0.022079747
2	0xbcc6c7b8	-0.024265155
3	0x3c69e844	0.014276568
4	0xbc1408e6	-0.009035325
5	0x3cb3fc46	0.02197088
6	0xbce862a6	-0.028367352
7	0xbb4315d6	-0.0029767654
8	0x3bb3354d	0.0054690004
9	0x3c42dea0	0.011893898
10	0x3c923d0a	0.017851371
11	0xbc739c7c	-0.014868852
12	0xbc81fbc1	-0.015867116
13	0x3c8ee884	0.017444856
14	0xbd04d385	-0.032428283
15	0x3c1491e0	0.009067982
16	0x3c826d8d	0.015921379
17	0xbcc37714	-0.023860492
18	0x3ca6ec10	0.020376235
19	0x3c19d5ce	0.009389354
20	0xbca44d40	-0.020056367
21	0x3bd1989f	0.0063963677
22	0xbc06ead3	-0.008234697
23	0x3cb7c5f6	0.022433262
24	0xbc9403d4	-0.018068232
25	0x3d0e0a3a	0.03467772
26	0x3c8df11a	0.01732688
27	0xbcb94124	-0.02261407
28	0x3849ccf5	4.8113016e-05
29	0xbc964f98	-0.0183485
30	0xbd0bd5d4	-0.03413947
31	0xbcbb286a	-0.02284642
32	0x3c8aa724	0.016925402
33	0x3b8dcb3d	0.0043272064
34	0xbcb25fd0	-0.021774203
35	0xbd008889	-0.03138021
36	0xbc26423e	-0.010147629
37	0xbbc35571	-0.005961113
38	0x3d0be620	0.03415501
39	0xbc055e68	-0.008140184
40	0xbc658a4e	-0.014010025
41	0xbcd84762	-0.026401225
42	0x3c7a0ea7	0.015262282
43	0x3c9c321c	0.019066863
44	0xbb57b20b	-0.0032912518
45	0xbcef8d94	-0.029242314
46	0x3c235cb0	0.009970829
47	0x3c60278c	0.013681304
48	0xbd0785bc	-0.033086523
49	0xbcbaa2a4	-0.022782631
50	0x3c0e62d0	0.008690551
51	0x3945ab95	0.00018851303
52	0xbd0d9218	-0.034563154
53	0x3a7f914d	0.00097491295
54	0x3b941c0d	0.0045199455
55	0xbc43b370	-0.011944637
56	0x3cd80d1e	0.026373442
57	0x3bc3331f	0.005957022
58	0xbc842565	-0.016131112
59	0xbc7958ea	-0.015218953
60	0x3cfba628	0.030718878
61	0x3c6c6f90	0.014430895
62	0xbc85734b	-0.016290328
63	0xbca961d1	-0.020676525
64	0x3bae4e3d	0.0053193853
65	0xbc6bf86d	-0.014402491
66	0x3cdea225	0.027176926
67	0x3ca237a3	0.01980192
68	0xbc6f15e4	-0.0145926215
69	0x3c33ed6f	0.010981902
70	0xbd11a548	-0.035558015
71	0xbc9c52ce	-0.019082453
72	0x3c212387	0.009835131
73	0x3a1ee0fc	0.0006060747
74	0xbd17d28b	-0.037066024
75	0xbcdebdff	-0.027190207
76	0x3c768cac	0.015048187
77	0x3c44fc2c	0.012023013
78	0x3cea0c70	0.028570384
79	0xbc390126	-0.011291778
80	0xbcfc934f	-0.030831961
81	0x3c74bcaf	0.014937564
82	0xba3227e3	-0.0006796105
83	0xbcab7b2a	-0.020932753
84	0x3cf83e0b	0.030303022
85	0xba803025	-0.0009779973
86	0x3c70442b	0.01466469
87	0xbc9d2336	-0.019181829
88	0x3bced379	0.0063118306
89	0x3c88b836	0.016689401
90	0xbcb21380	-0.021737814
91	0xba93220a	-0.0011225354
92	0x3bddb351	0.006765761
93	0xbc6d8fb1	-0.014499591
94	0x3ca62226	0.020279955
95	0xbc3869eb	-0.011255722
96	0xbcd80a77	-0.026372178
97	0xbc068e83	-0.008212688
98	0x3d03797f	0.03209829
99	0xba5dca65	-0.000846064
100	0xbc8331ac	-0.016014896
101	0xbc36d1e5	-0.011158441
102	0xbc783692	-0.015149729
103	0xbc0c85e8	-0.008576848
104	0xbd3dbf89	-0.04632524
105	0xbb3719eb	-0.0027939032
106	0xbab8f2ed	-0.0014110483
107	0xbd057417	-0.032581415
108	0xbcc4e8e9	-0.024036841
109	0xbcd6de44	-0.026229031
110	0xbc1b0626	-0.009461915
111	0xbcd35dec	-0.025801621
112	0xbc8dfb0c	-0.017331623
113	0x3cb98da8	0.022650555
114	0x3ca3a20c	0.01997473
115	0x3cc815f2	0.024424527
116	0x3cffe484	0.031236894
117	0xbcf469a6	-0.029835533
118	0xbcce8bb9	-0.02521311
119	0x3c9b0c47	0.018926753
120	0x3c9a440e	0.01883128
121	0x3cda3101	0.026634695
122	0x3befee1b	0.0073220856
123	0xbc82e94b	-0.015980383
124	0xbbdbb632	-0.006705069
125	0x3d28d498	0.04121837
126	0xbc9751d2	-0.018471632
127	0x3cc59acf	0.02412167
128	0x3d3f9ec5	0.046782274
129	0x3c681fd5	0.014167746
130	0x38582c9f	5.153997e-05
131	0xbd17cbce	-0.037059598
132	0xbd333e22	-0.043760426
133	0x3b5ba50f	0.003351513
134	0x3bbea44c	0.0058179256
135	0x3cdb7d45	0.026793132
136	0x3d05493b	0.03254054
137	0x3c2ac506	0.010422951
138	0x3b063a7b	0.0020481634
139	0x3b8c042d	0.0042729587
140	0x3ca04790	0.019565374
141	0x3caad1b2	0.020851944
142	0xbc4fcb28	-0.012682714
143	0xbd0f1711	-0.034934107
144	0xbc3f3a03	-0.011671546
145	0x3c16b09a	0.0091973785
146	0x3c069cd3	0.008216101
147	0x3d2be09a	0.041962244
148	0x3d4f5970	0.050622404
149	0x3d3eba44	0.046564355
150	0x3d877f46	0.06616072
151	0x3d63e7b9	0.05564091
152	0x3d55b17c	0.052171215
153	0x3dbfeb19	0.09371013
154	0x3c6d541c	0.014485385
155	0xbd1df098	-0.038559526
156	0x3d151bf0	0.036403596
157	0x3d8dc620	0.06922555
158	0x3ba71238	0.0050986074
159	0x3c8dcfdd	0.017311031
160	0xbd2d607f	-0.042328354
161	0x3b49888a	0.003075155
162	0x3d68a8d0	0.056801617
163	0x3d8d9126	0.069124505
164	0x3c3c6d42	0.0115006585
165	0xbce74e4d	-0.028235579
166	0xbc253cca	-0.010085294
167	0xbbabf907	-0.005248192
168	0x3c4e3648	0.012586184
169	0x3d07ba48	0.033136636
170	0x3ce6d285	0.028176555
171	0x3cca00d8	0.024658605
172	0xbd448fd9	-0.047988746
173	0xba91b194	-0.0011115544
174	0x3c97c478	0.0185263
175	0xbb85453c	-0.0040670913
176	0x3cb2a8d1	0.021809014
177	0x3c96ec59	0.018423246
178	0x3db83392	0.08994211
179	0x3a6c4d2f	0.0009014187
180	0x3c89f6d0	0.016841322
181	0x3cb6f8c2	0.022335414
182	0x3d4291b4	0.047502235
183	0xbb3e5c8e	-0.0029046866
184	0xbc220d06	-0.0098908
185	0xbca1ed0d	-0.019766355
186	0x3d7e3037	0.0620577
187	0x3cb9d926	0.022686552
188	0x3c477e19	0.01217606
189	0x3d828317	0.0637266
190	0x3d8a93e7	0.067664914
191	0x3cb75cd0	0.022383124
192	0x3d25c25f	0.04046857
193	0xbc389495	-0.0112658935
194	0xbac7d8cd	-0.0015247107
195	0x3c5a49be	0.013323246
196	0xbd12d49a	-0.035847284
197	0x3bc49696	0.0059993966
198	0x3c2bcedb	0.01048633
199	0x3c8302f2	0.015992615
200	0xbba4ab97	-0.005025338
201	0x3ba14af7	0.0049222666
202	0x3c4eee96	0.0126301255
203	0x3ac824c7	0.001526975
204	0x3bff51c6	0.0077917306
205	0x3cc56ae0	0.024098814
206	0x3d285a3f	0.04110169
207	0x3d06cf56	0.032912575
208	0x3bb9c065	0.005668687
209	0x3d109bbc	0.03530477
210	0x3bb8d129	0.005640168
211	0xbba77af1	-0.0051110913
212	0x3ce6b3fa	0.028161991
213	0x3d35a3a0	0.044345498
214	0x3da4ce68	0.08047181
215	0x3d8ea900	0.06965828
216	0x3d98497c	0.07435891
217	0x3d818a1e	0.06325172
218	0x3ce4236c	0.027848922
219	0x3c802fa0	0.01564771
220	0x3ad5cb70	0.001631124
221	0x3c929184	0.017891653
222	0x3b8d8ff2	0.004320138
223	0x3ca91264	0.020638652
224	0xbd0be842	-0.034157045
225	0x3c60b534	0.013715077
226	0xbd0441d6	-0.03228935
227	0x3cb50486	0.022096884
228	0xbc8b4e10	-0.017004997
229	0xbcad9cc0	-0.021192908
230	0xbd0db883	-0.034599792
231	0xbc24aba9	-0.010050693
232	0xbc145ed8	-0.009055816
233	0x3c738614	0.01486351
234	0x3ce7cfd8	0.02829735
235	0x3c6c2ff3	0.014415729
236	0x3d347c05	0.044063587
237	0x3d76aef9	0.06022546
238	0x3daeaccb	0.085290514
239	0x3db3e52f	0.08783948
240	0x3d725488	0.059162647
241	0x3cd0f37e	0.025506731
242	0x3d44cf97	0.048049536
243	0x3d11061a	0.03540621
244	0x3d93d993	0.07219233
245	0x3d2e5b47	0.042567518
246	0x3d63d9ee	0.055627756
247	0xbba5f2d8	-0.0050643496
248	0x3d01bb14	0.031672552
249	0x3cd1ac30	0.0255948
250	0x3c330de5	0.010928606
251	0x3d05f20e	0.032701544
252	0xba7236d3	-0.0009239737
253	0xbd056fd6	-0.03257736
254	0x3cafefdd	0.02147668
255	0xbc2fa8f9	-0.010721439

bias f4 [64]
0	0x3cf9a6bf	0.030475019
1	0xbb561825	-0.00326682
2	0xbd091e46	-0.033476137
3	0x3c3433bd	0.0109986635
4	0x3c9d7569	0.019221025
5	0xbbe29195	-0.0069143274
6	0xbc6d93df	-0.014500587
7	0x3c2bc645	0.010484283
8	0x3c4f9b5b	0.012671317
9	0xbc35ca7a	-0.011095637
10	0x3c030332	0.007996367
11	0x3c788e98	0.015170716
12	0xbcb13004	-0.021629341
13	0xbc883f47	-0.016631735
14	0xbc6f5e1c	-0.01460984
15	0x3d08a373	0.033359002
16	0xbb44b7ae	-0.0030016708
17	0x3ba2d131	0.004968785
18	0x3d268a18	0.04065904
19	0x3b7cd684	0.003858001
20	0xbcf0bd7b	-0.029387226
21	0xbd0430d2	-0.03227312
22	0xbc93b182	-0.018028978
23	0xbd05531b	-0.03254996
24	0x3c08738f	0.008328333
25	0xbc9a6690	-0.018847734
26	0x3cf4427d	0.02981686
27	0x3c679c27	0.014136351
28	0xbb462553	-0.003023465
29	0xbc9ed86e	-0.019390311
30	0xbbb7555b	-0.005594892
31	0x3c07f331	0.008297727
32	0xbcfc33b1	-0.030786367
33	0x3c835578	0.016031966
34	0xbcb77a81	-0.022397282
35	0xbbdd9e9c	-0.0067632925
36	0x3ca8355a	0.020533253
37	0x3d0e9c88	0.03481725
38	0xbc568ae4	-0.013094638
39	0xbca18571	-0.01971695
40	0xbca26106	-0.019821655
41	0x3c86f141	0.01647246
42	0xbcb9046d	-0.022585118
43	0xbbf722de	-0.0075419983
44	0xbd17f473	-0.03709836
45	0x3c7e1342	0.015507521
46	0x3b97953a	0.0046259435
47	0x3a0e3b22	0.00054256816
48	0x3d0ec0ad	0.03485172
49	0xbaa29d52	-0.0012406504
50	0xbc288485	-0.010285501
51	0xbc94a556	-0.018145245
52	0xbc93a909	-0.018024938
53	0xbd1258c1	-0.035729174
54	0x3c9c8978	0.019108519
55	0xbcec3873	-0.02883551
56	0x3c12da78	0.00896322
57	0x3cccbe5d	0.024993116
58	0xbd0cda52	-0.034387894
59	0x3d0f5598	0.034993738
60	0xbca22627	-0.019793583
61	0x3be32694	0.006932089
62	0x3cabca94	0.02097062
63	0xbc24977a	-0.01004588

weight f4 [16, 64]
0	0xbec071f6	-0.37586945
1	0x3ec81745	0.39080253
2	0x3c8ade52	0.016951714
3	0xbe56bf1a	-0.20971337
4	0xbee67a77	-0.45015308
5	0xbd5b7d39	-0.05358622
6	0x3e86165f	0.26188943
7	0xbde3aec8	-0.11117321
8	0xbc556186	-0.01302374
9	0x3d11fb97	0.035640325
10	0xbccb436e	-0.024812426
11	0x3d2b81b1	0.04187173
12	0x3efd6b6a	0.49496013
13	0x3e93ebd9	0.28890875
14	0x3e47aece	0.19500276
15	0x3f2698b5	0.6507676
16	0x3d56c65c	0.052435264
17	0xbe6c4795	-0.23074181
18	0x3db238da	0.0870225
19	0x3c6559db	0.013998474
20	0xbd5721cc	-0.052522466
21	0xbe0032dc	-0.12519401
22	0x3ec21d80	0.37913132
23	0xbda37a60	-0.079823256
24	0xbc808a15	-0.015690843
25	0x3ead00a9	0.33789566
26	0x3d3b1fc1	0.04568458
27	0x3dd26c95	0.10274617
28	0xbdaa22cb	-0.083074175
29	0x3e2f1746	0.17098722
30	0xbe8f804e	-0.28027576
31	0x3e4ee3d7	0.20204102
32	0x3d5d9e44	0.054106012
33	0x3d9fc325	0.07800893
34	0x3e646268	0.22303164
35	0xbdc450cc	-0.09585723
36	0x3e8db6ad	0.27678433
37	0x3d4adc40	0.049526453
38	0xbe37e048	-0.1795665
39	0x3c92fe70	0.01794359
40	0xbea5ed67	-0.32407686
41	0x3ec8b2d7	0.39198944
42	0x3e6f2e80	0.23357582
43	0x3cea1d9c	0.028578572
44	0x3deb713c	0.11496207
45	0x3c22c5aa	0.009934822
46	0x3d7185cb	0.058965486
47	0x3da5da50	0.080982804
48	0x3e5c5c45	0.21519573
49	0x3bb2746c	0.0054460075
50	0xbf0feb99	-0.5621887
51	0x3b36acb2	0.002787393
52	0x3e4353c2	0.1907492
53	0xbdb57c9a	-0.088616565
54	0x3e0d7da8	0.13817465
55	0xbe274f45	-0.16338833
56	0x3df6e440	0.12055254
57	0xbce9e16e	-0.028549876
58	0x3c94a195	0.018143455
59	0xbebbac9d	-0.3665513
60	0xbe36eb99	-0.17863311
61	0x3c181c29	0.009284058
62	0xbd785a87	-0.06063321
63	0x3ec31749	0.38103703
64	0x3d8dcaef	0.06923472
65	0xbd2229c0	-0.039590597
66	0x3dc3e2e1	0.09564758
67	0x3c929f0d	0.017898107
68	0xbd4148c0	-0.04718852
69	0xbd4ccf95	-0.050002653
70	0x3dcb1df4	0.099178225
71	0xbca8f32c	-0.020623766
72	0x3b347854	0.0027537541
73	0x3c29f5e1	0.0103735635
74	0x3e78f162	0.2431083
75	0x3cafe304	0.021470554
76	0x3d3885ae	0.045049362
77	0xbd19c5d6	-0.037542187
78	0x3de27512	0.11057486
79	0x3b2fa327	0.0026800127
80	0x3d92468d	0.07142363
81	0x3d7c659e	0.061620347
82	0xbd137ee8	-0.0360097
83	0xbdae4485	-0.08509163
84	0xbc330470	-0.010926351
85	0xbdba95ee	-0.09110628
86	0x3d61f251	0.05516273
87	0xbdbd59fc	-0.09245679
88	0xbdc7ae88	-0.09750086
89	0xbbf69012	-0.0075244987
90	0xbdca2d2d	-0.09871898
91	0xbdbe3c6b	-0.092888676
92	0xbcba87f0	-0.022769898
93	0xbc95ef58	-0.018302605
94	0x3e795b9f	0.24351357
95	0xbd8cf2bf	-0.06882238
96	0xbd318fd4	-0.043350056
97	0xbd1835be	-0.037160628
98	0xbddf8022	-0.10913111
99	0x3c3f29ae	0.011667652
100	0xbd0435a5	-0.032277722
101	0x3d15d2b9	0.036577914
102	0x3c7688c7	0.015047259
103	0xbe02849d	-0.127459
104	0x3db44ca1	0.08803678
105	0x3cca4b45	0.024694094
106	0x3b46f9d5	0.0030361314
107	0x3e393613	0.18087034
108	0x3dac89c9	0.08424718
109	0x3d628d4d	0.055310536
110	0xbe1abe1a	-0.1511158
111	0xbe1b45cf	-0.15163349
112	0xbd67c09e	-0.05658018
113	0x3dd0e604	0.10200122
114	0xbda8c4f2	-0.08240689
115	0xbc99e255	-0.018784681
116	0xbdb97189	-0.09054858
117	0xbd4c861f	-0.049932595
118	0x3d365b27	0.044520523
119	0x3cd710e1	0.026253166
120	0x3c95847d	0.018251652
121	0x3d233855	0.039848644
122	0x3d9a41a1	0.07532049
123	0xbe48b5c4	-0.19600588
124	0x3d93c3d7	0.07215088
125	0xbd13f24b	-0.03611974
126	0x3c1a2d3d	0.0094102
127	0xbe2615db	-0.16219275
128	0x3c781fb3	0.015144276
129	0x3e055941	0.13022329
130	0xbe911c97	-0.28342125
131	0x3c546675	0.012963881
132	0xbe4b00db	-0.19824545
133	0x3dfa4e79	0.12221999
134	0x3cec28d5	0.028828064
135	0xbca87ec6	-0.020568263
136	0xbd1787ba	-0.036994673
137	0xbdddfece	-0.10839616
138	0xbdbd5cb0	-0.09246194
139	0x3e032026	0.12805232
140	0x3d3a74bf	0.045521494
141	0xbddee30d	-0.1088315
142	0xbe56d574	-0.20979863
143	0x3a277886	0.0006388504
144	0xbe269556	-0.16267905
145	0xbe5cb3dd	-0.21552987
146	0x3dda3c04	0.10655978
147	0xbd4f83ed	-0.050662924
148	0x3dfed04f	0.124420755
149	0xbe0b0f20	-0.13579988
150	0x3dfbd206	0.12295918
151	0xbba0a560	-0.0049025267
152	0xbd1192b0	-0.035540283
153	0xbd89a502	-0.06720926
154	0xbdf27c70	-0.11840141
155	0xbc1f329a	-0.009716654
156	0x3d970ce2	0.07375504
157	0x3e1c0d72	0.15239504
158	0xbd5689f1	-0.052377645
159	0xbdee7d4f	-0.116449945
160	0x3c0ba936	0.00852423
161	0xbbc0b1fc	-0.0058805924
162	0x3d2de024	0.042450085
163	0xbdaa53b4	-0.08316746
164	0xbd89907c	-0.06717011
165	0xbd8aab22	-0.06770922
166	0xbdfb9e78	-0.12286085
167	0x3dfa38a9	0.12217838
168	0x3db1db34	0.08684388
169	0x3dc26f21	0.094938524
170	0x3e0fe572	0.1405237
171	0x3cb5f628	0.022212103
172	0x3dfcd9fc	0.12346265
173	0xbe248ba8	-0.160689
174	0xbe19380c	-0.14962786
175	0x3e9aeda2	0.30259424
176	0x3e532b67	0.20622025
177	0xbd573210	-0.052537978
178	0x3d943ab3	0.072377585
179	0xbb9d3cf9	-0.0047985283
180	0xbe1d5ef9	-0.1536826
181	0x3d7d4c65	0.061840434
182	0xbdf5acc0	-0.1199584
183	0x3c5fd56f	0.013661726
184	0xbd359ccf	-0.044338997
185	0x3dd890d9	0.105745025
186	0xbdba5fe7	-0.09100323
187	0xbdacfab4	-0.08446255
188	0x3db015e2	0.08597924
189	0xbe029e30	-0.12755656
190	0xbe1ccee8	-0.15313303
191	0x3dcd6589	0.10029132
192	0x3ed78e9f	0.42101
193	0x3bae0097	0.005310129
194	0xbd5b1d63	-0.053494822
195	0x3eeab230	0.4583907
196	0x3c46c69e	0.012132315
197	0x3e83626b	0.25661024
198	0x3cb2f2a5	0.021844218
199	0xbe9b3d83	-0.30320367
200	0x3d4c3e57	0.04986414
201	0xbe30a377	-0.17249857
202	0xbd7d7a1b	-0.061884027
203	0x3c7a1f94	0.015266318
204	0xbe002d94	-0.12517387
205	0xbd439722	-0.047751553
206	0x3eacab36	0.33724374
207	0x3e902eaa	0.28160602
208	0xbd2bd5aa	-0.041951813
209	0x3d8c0fa1	0.068389185
210	0x3e700939	0.23441018
211	0xbdaafe63	-0.08349302
212	0x3ddcc33d	0.10779426
213	0x3edefdb2	0.4355293
214	0x3e3084aa	0.17238107
215	0x3df7a6e2	0.12092377
216	0xbe24e4be	-0.16102883
217	0x3e3b0f35	0.1826752
218	0x3e31619d	0.17322393
219	0x3d17baa0	0.037043214
220	0x3e823693	0.25432262
221	0x3d885cad	0.066583015
222	0xbd93a4c3	-0.0720916
223	0xbe26b0c3	-0.16278367
224	0x3d9bd042	0.076080814
225	0xbd7415aa	-0.059590973
226	0x3d743495	0.05962046
227	0xbe8df151	-0.27723172
228	0x3e5d5112	0.21612957
229	0xbe00e4a0	-0.12587214
230	0xbd160281	-0.03662348
231	0xbc1a8231	-0.009430454
232	0xbe050041	-0.12988378
233	0xbe11c5f3	-0.14235668
234	0xbbe8d1e0	-0.007105097
235	0x3e77701f	0.24163865
236	0x3e60ab97	0.21940456
237	0x3d0410d3	0.032242607
238	0x3e2f635b	0.17127745
239	0xbe0f2e5b	-0.13982527
240	0x3d68aa4b	0.05680303
241	0x3e48bceb	0.19603316
242	0xbd97de97	-0.074155025
243	0x3d936cef	0.07198512
244	0xbee20848	-0.44146943
245	0xbc853998	-0.016262814
246	0xbe896745	-0.268366
247	0x3ecdd950	0.4020486
248	0x3ec5dbd7	0.38644287
249	0x3e21da20	0.15805864
250	0x3e03b394	0.12861472
251	0x3dd6b92f	0.1048454
252	0xbe0d9e49	-0.13829912
253	0x3d6366e4	0.055518046
254	0x3dbe5c34	0.0929493
255	0x3d422ee1	0.04740799

bias f4 [16]
0	0x3c5d31b7	0.0135006225
1	0x3d277087	0.0408788
2	0xbc93a746	-0.018024098
3	0x3dae08b1	0.084977515
4	0x3dc8b919	0.098009296
5	0xbcf5b112	-0.02999166
6	0x3e17ca86	0.1482335
7	0x3d9dd0b5	0.07705823
8	0xbdf75384	-0.12076476
9	0x3d2bae20	0.041914105
10	0x3df828f6	0.12117188
11	0x3e24b82e	0.16085884
12	0xbdd86b8d	-0.10567389
13	0x3deba468	0.115059674
14	0x3d8b94e7	0.0681551
15	0xbdd733ce	-0.10507928

weight f4 [10, 16]
0	0xbe79ec06	-0.24406442
1	0xbd406ec9	-0.046980653
2	0x3d9a9be0	0.07549262
3	0x3f1dbb9f	0.6161441
4	0xbe750e2a	-0.23931184
5	0xbebe87cc	-0.3721298
6	0x3da4338e	0.08017646
7	0x3f67970b	0.9046485
8	0xbe6b814a	-0.22998539
9	0xbf422ff4	-0.7585442
10	0x3e6a1ed8	0.22863328
11	0xbc44956d	-0.0119985165
12	0xbdcf9cff	-0.101373665
13	0x3df68c14	0.120384365
14	0xbf3ce041	-0.73779684
15	0xbeaeb257	-0.34120438
16	0xbee79c7d	-0.4523658
17	0xbd6ad946	-0.057336114
18	0xbdccf282	-0.10007192
19	0xbe773000	-0.24139404
20	0xbe473d9a	-0.19457093
21	0x3f70de35	0.9408906
22	0x3e8288aa	0.2549489
23	0xbeffe1f9	-0.4997709
24	0x3e317dd4	0.17333156
25	0x3f019a78	0.50626326
26	0xbeaec07b	-0.34131226
27	0xbf380692	-0.71885026
28	0x3d13f337	0.03612062
29	0x3f6963b3	0.91167754
30	0xbef09776	-0.46990556
31	0xbedb9707	-0.42888662
32	0x3e8761f2	0.26441914
33	0xbe213159	-0.15741481
34	0x3da32506	0.07966046
35	0x3e928a04	0.28620923
36	0xbe115dca	-0.14195934
37	0xbe9536fe	-0.29143518
38	0xbef1a590	-0.47196627
39	0xbe1b02d4	-0.15137798
40	0x3f894386	1.0723732
41	0xbc82d922	-0.015972678
42	0xbf5bd319	-0.85868984
43	0x3ed0abb1	0.4075599
44	0x3e6ca876	0.23111138
45	0x3ea0a999	0.31379393
46	0xbe8501bb	-0.25977883
47	0xbea64161	-0.32471755
48	0xbedb691d	-0.42853633
49	0x3ebb8d9f	0.36631486
50	0x3e910255	0.28322092
51	0x3df459fa	0.11931224
52	0x3e9b29e7	0.30305406
53	0xbf1e8e45	-0.61935836
54	0x3f1034b0	0.56330395
55	0x3e59edb5	0.21282084
56	0xbd634cb4	-0.05549307
57	0x3f8cc602	1.0997927
58	0xbf27e176	-0.655784
59	0xbdae2c99	-0.085046
60	0x3e4f64d2	0.20253304
61	0xbe5526aa	-0.2081553
62	0x3f10bdb4	0.56539464
63	0x3e885d64	0.2663375
64	0x3f0b2882	0.54358685
65	0xbde80dce	-0.11330758
66	0x3e9b2e52	0.30308777
67	0x3e831553	0.25602207
68	0x3dfccc21	0.12343622
69	0x3f544ae2	0.8292676
70	0x3e9370e9	0.2879708
71	0xbf6f310a	-0.934342
72	0xbf24be26	-0.64352643
73	0xbe0d2123	-0.13782172
74	0x3f0aeebd	0.54270536
75	0x3e9a23ec	0.3010553
76	0x3d0ad4b8	0.03389427
77	0xbf536db9	-0.825893
78	0x3ed6188b	0.418156
79	0xbf5759a2	-0.84121144
80	0xbec63706	-0.38713855
81	0x3e102c09	0.14079298
82	0x3dbd6f32	0.092497244
83	0xbe2319b7	-0.15927778
84	0xbd7965e4	-0.060888186
85	0xbea925f9	-0.33036783
86	0xbf823217	-1.0171536
87	0x3c5fb17e	0.013653157
88	0xbe8a9418	-0.27066112
89	0x3f09276c	0.5357578
90	0x3f7a260a	0.97714293
91	0xbf32fb6b	-0.69914883
92	0x3dc15dd2	0.09441723
93	0x3e49a0cf	0.1969025
94	0x3f4830e8	0.78199625
95	0x3f42187b	0.75818604
96	0xbf8fd890	-1.1237965
97	0x3ded71f0	0.115939975
98	0xbe2d5177	-0.16925608
99	0xbf050b55	-0.51970416
100	0xbc5da86d	-0.013528925
101	0x3ed3e5bf	0.4138622
102	0xbf0a7bee	-0.5409535
103	0x3ca87ac0	0.020566344
104	0x3e0b7223	0.13617758
105	0xbee814db	-0.4532841
106	0x3f43c870	0.7647772
107	0x3f4de228	0.8042321
108	0xbde5b3e3	-0.11215951
109	0x3e2c7a12	0.16843441
110	0xbf0c04d3	-0.5469486
111	0x3cb7d58c	0.022440694
112	0x3f1eb82d	0.6199978
113	0xbd92a403	-0.07160189
114	0x3ed7d2c8	0.42153
115	0x3ece8725	0.40337482
116	0xbe91b6aa	-0.28459674
117	0x3ea981c0	0.33106804
118	0x3e4db211	0.20087458
119	0xbe8814f3	-0.26578483
120	0x3f350130	0.70704937
121	0x3e30bd16	0.1725963
122	0x3db46d30	0.08809888
123	0xbf7f54a8	-0.9973855
124	0xbd54f25c	-0.051988944
125	0xbf430530	-0.7617979
126	0xbf6a774c	-0.9158828
127	0x3f3514eb	0.70735043
128	0x3f31aff9	0.6940914
129	0x3dd9a457	0.106270485
130	0xbec4aea3	-0.38414487
131	0xbf78471c	-0.96983504
132	0xbe7f507a	-0.24933043
133	0xbf91ecfa	-1.1400445
134	0x3ed32dfe	0.41246027
135	0xbe89421d	-0.26808253
136	0xbebaef85	-0.36510864
137	0xbec0a042	-0.37622267
138	0x3e49ff1a	0.1972622
139	0x3e44b505	0.19209678
140	0xbe644432	-0.2229164
141	0x3f4bc889	0.7960287
142	0x3e7836ad	0.24239607
143	0x3d928f03	0.071561836
144	0x3e5ac224	0.21363121
145	0xbe843350	-0.25820398
146	0xbeb69d9e	-0.35667127
147	0xbe65b54b	-0.22432439
148	0xbda2fe47	-0.07958656
149	0x3e595125	0.2122236
150	0x3f61cd9c	0.8820436
151	0x3f40b6ae	0.7527875
152	0xbf4a8a23	-0.7911703
153	0xbef55833	-0.47918853
154	0xbef84649	-0.48491123
155	0x3d8216a1	0.06351972
156	0x3e344e4a	0.1760799
157	0xbee88e89	-0.45421246
158	0x3f1306e5	0.57432395
159	0x3ef2322b	0.473039

bias f4 [10]
0	0xbe46dac9	-0.19419397
1	0x3e22d9e7	0.15903436
2	0x3d228fd5	0.03968795
3	0x3e5d1a5d	0.21592088
4	0xbd7b52fd	-0.06135844
5	0xbdd5eca7	-0.104455285
6	0xbe3546ac	-0.1770274
7	0xbdb3c938	-0.08778614
8	0xbb94ea89	-0.0045445603
9	0xbea2b0d7	-0.31775543
