my_model.pt (torch, 208791 bytes, 6 tensors)

weight f4 [64, 784]
00000000: e10d 7abc 14d7 05bd 183d 023d 5d50 803b
00000010: de60 eabc 4ed1 0d3d 8cd2 eabc 4266 dd3c
00000020: b4bc 8bbc 1070 d2bc c019 ea3c b6dc 99bb
00000030: ca65 e13b d233 40bc 455f babb adea 683b
00000040: 6c58 a03c 1aad 0b3d 1aa9 b63c 5a49 c3bc
00000050: 0f68 b139 c216 8b3c ea7c 02bd e04c 2a3c
00000060: eaa9 123d e876 94bc 0629 f7bc ec97 c8bb
00000070: 44f7 933a 76a6 dabc f068 b638 dae8 bcbc
00000080: 1244 483c ff64 053a c4ea dabb 240f 023d
00000090: 5495 1c3d 69ea 71bb e68c 103d e05b 913c
000000a0: 109e 9abc bd40 e83c ac1f 113d edef 0e3d
000000b0: 4c27 063d 6afa 25bc 4ae3 37bc 5379 fc3c
000000c0: e97e 883c cdf7 fbbc 259e d03c 7ee6 c9bc
000000d0: ec28 c3bc 6806 553c ce29 81bc 31dd 0ebc
000000e0: d7a8 a7bb 4eb6 473c 021d 4cbc 4a0a b0bc
000000f0: 58a4 45bc 1314 193a 5e4f 703c ba88 1ebc
00000100: 6fc9 9fbb 2fb7 243d a0f6 203d dd63 2d3d
00000110: 7694 583d 40b7 343c 700d 3b3d 6ec8 6e3d
00000120: f6af 7f3c fa51 443d 4553 b13b 8905 79bc
00000130: 0a30 5f3c 8d98 06bb 66de 4b3c 1d5e 12bc
00000140: 42e7 9bbc fc59 f33c 25be 6dbb ea03 043d
00000150: 4014 16bc 84da 913c eea3 2f3c 6d82 5cba
00000160: f51b 3dbc c5b5 f53c 16dc aa3b b691 b83c
00000170: 74be 873d 0153 443d d0ad 543d 0059 d13d
00000180: 778e 0e3e 4c1d cd3d 150d 983d 775b d83d
00000190: 0dcd 2d3d 6a9e 613d b578 493d 57be 4b3d
000001a0: 1d66 203d 5d9f 8d3c b141 833b ed29 663c
000001b0: 54f7 4b3c c5f3 0abd 70fe 3fbb d4c6 bf3c
000001c0: 6c84 c43a aece 493c 34b2 023d e30d 5fbb
000001d0: b37c 813c 5f6e f03b e2a1 dd3c dd11 943d
000001e0: 3a22 673d 7864 d83c a4b1 583d 0a51 a13d
000001f0: 182f 813d f350 733d a08e 90bd 54d3 f2bc
00000200: 4b0d 4cbd 23ee 0ebd d478 3ebd 0392 2c3d
00000210: 01b0 2bbd a248 77bd 81bf 61bd 943c d3bc
00000220: f0b3 dabc 1c31 713c 7a22 cc3c 86cb 95bc
00000230: aa91 a9bc d245 f43c 615c 083d 8d35 013d
00000240: 4322 893c ffa3 643d a8bf 1e3d 9b69 493d
00000250: 26a1 6cbc 432f 96bc c7b5 e83c 9009 15bd
00000260: adc2 8abb db1d 7cbc 0fa3 46bd 855f 013d
00000270: 3095 14ba e630 bdbd 1d77 353c fb24 603c
00000280: acaa 16bc cfb5 aebd 31f5 1bbd 5c49 49bd
00000290: 3848 69bc 71c2 513c e85a 8e3c d2c2 cd3b
000002a0: 9915 83bc 2aa7 b7bc f1f9 82bc 5d5b 653d
000002b0: 7754 b33d b143 ca3c 62c5 513d 901c 643b
000002c0: 6e87 b7bd 1cd0 07bd dece aabc d9d5 753d
000002d0: 599a 8d3c dd9b b0bc 9a2a c93c 5b60 d9bb
000002e0: 0853 08b9 47eb 89bd a68c 83bc bdf0 93bd
000002f0: 0f62 14be 60f1 87bc 7e26 a3bd 2205 d6bd
00000300: 6da5 5ebc 6980 12bd 74b4 9dbc 93de 04bd
00000310: 6e2f 35bc 54e7 253c 1167 9c3c dc8f c73b
00000320: 7cb6 a33d 50fe bc3d a03d 943c fc1e b2bc
00000330: 2867 9fbd e2e0 2e3d e05b 8d3c 1001 a13d
00000340: 43bd 113c a24f b2bc b84d 563d 13d7 adbd
00000350: 9e36 77bd 1dd3 5ebd 920d 96bd 36cc d0bd
00000360: ce7f e1bd 25f1 90bd bf0a bfbd 46bf c5bd
00000370: e817 e6bd 9afc 24bd 1e65 9dbc d070 0abd
00000380: a8dc 013d 43f2 8abc 6f52 babc 3932 743b
00000390: 4634 763d da9b e13c 0eff b3bb 0371 c23b
000003a0: 2903 99bd fab3 5abd 40d0 283d fedb 60bd
000003b0: 5029 b9bd d281 dbbc f713 bf3b 87df 183d
000003c0: 064a 8cbd 3de5 a8bc 5f15 e1bd d76c d8bd
000003d0: 57cc bebd 30a2 7ebd 46c0 7bbd 7a4e 3abe
000003e0: ab8c 27be ad6e 08bd 8814 e93b c495 f43c
000003f0: d39f 86bb 26ac 9dbb fd19 0e3d fcb9 af3a
-0.015262098 -0.032675818 0.031796545 0.00391583 -0.028610643 0.034623437 -0.02866485 0.0270263
-0.017057754 -0.025688201 0.028576732 -0.0046955002 0.0068785893 -0.011731105 -0.0056876265 0.0035540268
0.019573413 0.03410063 0.02229743 -0.023838688 0.000338376 0.016978625 -0.03185741 0.010394305
0.035806574 -0.018123105 -0.030170929 -0.006121626 0.0011288901 -0.026690703 8.6979824e-05 -0.023060251
0.0122232605 0.0005088597 -0.0066808183 0.03175272 0.038228348 -0.00369134 0.03529062 0.017744005
-0.018874198 0.028351182 0.035430595 0.03489678 0.03275232 -0.010130504 -0.0112236235 0.03081957
0.016662078 -0.030757809 0.025466034 -0.02464604 -0.023823224 0.013002016 -0.015767004 -0.008719728
-0.005116563 0.012189461 -0.012458088 -0.021489281 -0.012063108 0.0005839478 0.01466736 -0.009676153
-0.0048763077 0.04021376 0.0392977 0.042331565 0.05287596 0.011030018 0.045667112 0.058296613
0.015605917 0.04792974 0.005411538 -0.015199074 0.013622293 -0.0020537705 0.012443161 -0.008933571
-0.01903117 0.029705994 -0.0036276665 0.032230295 -0.009160101 0.017804392 0.010720236 -0.0008411769
-0.01154231 0.029993901 0.0052142246 0.022530418 0.06628123 0.04793072 0.051923573 0.102220535
0.13921534 0.100153536 0.0742437 0.105643205 0.04243188 0.055082716 0.04918738 0.04974207
0.039159883 0.017287904 0.0040056338 0.014048082 0.012449104 -0.033923883 -0.0029295944 0.023410238
0.0014993078 0.012317343 0.03190823 -0.0034035377 0.015806532 0.007337376 0.02705473 0.0722997
0.056429125 0.026415095 0.052903786 0.07876785 0.063078105 0.05940337 -0.070584536 -0.029641785
-0.049817365 -0.034895074 -0.04650195 0.042131435 -0.041915897 -0.060372002 -0.055114273 -0.025785722
-0.026697129 0.014721181 0.024918783 -0.018285524 -0.02069934 0.02981845 0.033291224 0.03154521
0.01673997 0.05582046 0.038756996 0.04917298 -0.014442718 -0.018333083 0.02840699 -0.036386073
-0.004234633 -0.0153879775 -0.04849535 0.031585235 -0.00056679826 -0.09237842 0.011075762 0.013680692
-0.009195965 -0.08530771 -0.03807563 -0.049142227 -0.01423841 0.012802706 0.017377332 0.006279328
-0.01600151 -0.022418577 -0.015988322 0.055995334 0.08756345 0.02469048 0.05121363 0.0034807064
-0.08961378 -0.033157453 -0.020850595 0.060018394 0.017285513 -0.021558696 0.024556447 -0.006633801
-0.00013000902 -0.06734329 -0.016058277 -0.072236516 -0.14490531 -0.016594589 -0.07966326 -0.10450198
-0.013589245 -0.035766993 -0.019251086 -0.032438826 -0.011058671 0.010125954 0.019092115 0.0060901474
0.079937905 0.09228194 0.018095791 -0.02174329 -0.07783347 0.042694934 0.017255723 0.07861531
0.008895221 -0.021766488 0.052320212 -0.08488288 -0.06035482 -0.054400552 -0.07326807 -0.101952
-0.11010705 -0.07077245 -0.093282215 -0.09655623 -0.112350285 -0.040279962 -0.019213255 -0.033798993
0.031704575 -0.016961223 -0.022744386 0.003726138 0.060108446 0.027540136 -0.0054930514 0.005933882
-0.07471306 -0.053394295 0.041214228 -0.0548973 -0.09041083 -0.026795302 0.0058312374 0.037322547
-0.06850056 -0.020617122 -0.10990404 -0.105676346 -0.093163185 -0.062166393 -0.061462663 -0.18193999
-0.16362254 -0.033308674 0.007113043 0.02985657 -0.004108408 -0.0048117815 0.034692753 0.0013406868

bias f4 [64]
00000000: 361b 48bc c576 00bd 8e20 9e3b f13c 0f3d
00000010: d03e 21bd c3e6 61bb d611 2e3c 25e4 7fba
00000020: 2a80 49bc c7fe 42bb f1ca bdbc b402 aabc
00000030: 0f16 3a3b b7ed 17bd c447 2c3c f5a6 29bc
00000040: bd72 90bb 0c9b 82bb 9a2d 333c bcff 10bd
00000050: 66a7 da3c 440d e2bb 65f2 053d a849 fc3c
00000060: b431 423b 9700 a73c 2156 ddba 96b9 d83c
00000070: 6fd4 a0bc 507d 983c 7400 863c 3d0c 0dbd
00000080: 97a2 0bbd 7343 dc3b 2180 a13c 2240 153d
00000090: 041d 39ba af23 21bd 1028 8bbc b07a f0bc
000000a0: b2e0 8abc 0e82 053d 8be0 01bd 4031 afbc
000000b0: 777b e1bc b139 b53c 3f64 e93b 0917 93bc
000000c0: f5b2 6dbc 1e1d 253c 5686 ac3b cd69 a6b9
000000d0: 217a ea3c 5fdc 023d fb4f 2dbc 54e1 afba
000000e0: 460b 22bc 852e 083c cd6b f43c 318c ec3c
000000f0: 533f 033d be12 3cbc 12e1 5abc 1e0b 933c
-0.012213519 -0.031363267 0.004825658 0.034970228 -0.039366543 -0.003446982 0.01062437 -0.0009761474
-0.012298623 -0.002975391 -0.023168059 -0.020753242 0.0028394496 -0.037091937 0.010515157 -0.010354747
-0.004408209 -0.003985768 0.010936165 -0.035400137 0.02669115 -0.006898554 0.03270187 0.03079684
0.0029631676 0.020386023 -0.001688663 0.026455682 -0.019632546 0.018614441 0.016357638 -0.0344355
-0.034090605 0.0067219078 0.019714417 0.036438115 -0.00070615136 -0.03934067 -0.016986877 -0.029355377
-0.016952846 0.032594733 -0.03170828 -0.021385789 -0.027524693 0.022122236 0.007122546 -0.01795532
-0.014507999 0.010077743 0.0052650375 -0.00031740815 0.028622689 0.031948444 -0.010578151 -0.0013418593
-0.009890383 0.008311872 0.02983656 0.028875442 0.032042813 -0.011479078 -0.013359325 0.017949637

weight f4 [16, 64]
00000000: ab99 eb3d 3939 023f 53d5 d53e 8f64 76bd
00000010: 6767 e13e 6f0b a43d 8e74 ac3e 6a1b 8a3d
00000020: 7ae0 343e c2e8 bc3d 6b4b 5dbe f3d3 983e
00000030: da14 503e 168a 91bd 77c5 8abe ecb3 6d3e
00000040: 939c 863e bc59 823e c91f abbd b0fa c83c
00000050: 9839 0b3c cd06 29bd 9be6 2bbe 2798 333e
00000060: 5965 7b3e a19f 953d 8aac 8a3d 4bf7 0dbd
00000070: 61dd a6bd 1f9d e1bc f052 8a3d d741 8b3c
00000080: a045 843d 923c 3bbd 887c c23e 00f2 a73e
00000090: 8a5a d13e c457 0ebf 1eb6 8fbd e772 a93d
000000a0: ec08 86bd 098e 0abd 6097 eebe c65a 2e3d
000000b0: 589f 56be ccda e4bd 813f 1ebd fb45 68bd
000000c0: 0289 e63c 1ad8 cd3e fff3 9e3d 3cd7 6c3d
000000d0: 67af 3ebe e0b3 b4bd 76d4 fcbd 9fe8 033e
000000e0: ea36 0a3b 63ae 9abe 8539 d33e 6b34 bb3e
000000f0: 6b24 46be 0581 33bd c9aa b13e 1f04 2d3e
00000100: b7fc 813d 1a50 21be 95cc 4b3e d943 a33c
00000110: 5028 26bc f410 833b af78 fcbd 7f3d 84bd
00000120: 26c1 90be a80a cdbd f04b 4b3e d830 b93e
00000130: e374 36bd 8c64 26bd 05b0 7f3e 634f 51be
00000140: b054 1a3e a147 bd3e 5569 c33d 3b2b 7dbc
00000150: f91b 283e 7dc4 8a3d 9f5d 393e a76d 01bd
00000160: c691 133e b11a 8cbe 03f9 b93e 0174 67be
00000170: 68d5 5a3e e6b1 963e 0451 063d cce2 e93c
00000180: da7f 893d ea51 203d fb0d c3be 7a27 d13d
00000190: 6967 eebd 0d49 ba3d c810 df3c 39ed ee3d
000001a0: ca82 763d 8e88 7a3d 78fc d73d 5c23 673e
000001b0: cccb 233e 43ab 923d 9b85 3f3e 1e33 b0bd
000001c0: 7ae8 b33e bffe 8abd 37ed 1c3d 2221 513d
000001d0: 65e2 95bd 9d61 39bd d1a6 7cbc f402 a4be
000001e0: ad9a 493e 30cb e93d b1e8 d33b 002d 07bd
000001f0: 2294 903d 66e1 4cbd 658f 893d 1bb1 653e
00000200: 40ec 9e3e 7f17 6bbe 9d74 69be 77bc bf3c
00000210: 07fe b73e 27b2 923d 7b44 8a3d fed2 f5bc
00000220: 3fc2 e93d ea97 b03d e422 a73e 181f e0bd
00000230: 695e 913e 2290 613e 8b16 64be 508b bebd
00000240: 4949 563e 33a6 44bd 31ba ea3d c936 bb3d
00000250: 06ba 063d d469 2c3e bdc4 49be 2b1e 9f3d
00000260: 2e94 ecbd ec08 3abe fab5 1fbe 15f7 293e
00000270: 547c a13e 9a96 84be 5801 be3d bd0b a83e
00000280: 5e2e d9bd bd1b 0e3e e944 f43e e262 bb3d
00000290: d172 0c3e 7d04 c4bc 4eab 313e 9a68 963d
000002a0: 2a97 443e df27 ecbc 85b4 e23d 7b53 72be
000002b0: 74ad 31be a254 c73d 2fc4 d3bd d199 a1be
000002c0: 389e c8bd 7196 7c3b 989d 843e 8231 0e3d
000002d0: 065e 9d3e 0356 baba b2c9 053e 03cf 5fbd
000002e0: 8cc6 96be 279c b8be ccd5 2bbe 98a7 d9be
000002f0: 0b76 36be d465 82bc de0b 6e3b 414a 713e
00000300: 20fd 5a3e 6643 e63e 5f04 60be e3e6 4cbd
00000310: fb2f 163d 634c 0fbd 7023 e93e 01c6 013c
00000320: 4c3a 053e dcb8 803d 2125 4f3e e32c babe
00000330: 3fc3 033e 0071 803e 7812 763d 4c70 283f
00000340: 236d 47bd 7a36 31be f82a d23d 0f0a 3f3c
00000350: 61f9 733e 61fb 26bc 9716 0b3e 1bbf eb3d
00000360: 0067 aabd 12ed 003f 2df6 83be 9585 9d3d
00000370: b15d 49be f970 90be a959 88bd 9157 053c
00000380: 1462 8f3e 73f3 91bd 3d72 933e 4abc d53e
00000390: 2b57 393c c74a 0c3f e20f 203e 69fe 08be
000003a0: 865c 92bd afb6 773d 1719 14be 2b71 53bd
000003b0: 5335 a0bd 5f38 4abe 61d2 843e 4ebe bdbb
000003c0: ed08 aa3d adca 823e b0c9 f8bc 3af5 d5bd
000003d0: 063b c93c 57c9 f23c 0d85 6e3e 5f81 8f3e
000003e0: 29d9 a13e 4eaa cc3e 7e52 a4be a2ff 513e
000003f0: 9224 f0bd f29c b33d 025b f03d 68ac aebd
0.11503919 0.50868565 0.41764316 -0.060154494 0.44024202 0.08009993 0.33682674 0.0674351
0.17663756 0.092240825 -0.21610801 0.29849204 0.20320454 -0.07106416 -0.2710378 0.23213166
0.26291332 0.25459087 -0.08355672 0.0245336 0.008497618 -0.04126625 -0.16787188 0.1753851
0.2455038 0.073058374 0.067711905 -0.034659665 -0.081476934 -0.027540741 0.067541 0.016999168
0.064585924 -0.04571206 0.37985635 0.3280182 0.40889388 -0.5560267 -0.07017158 0.08273869
-0.065446705 -0.03382686 -0.46599865 0.042567037 -0.20959222 -0.11174545 -0.03863478 -0.056707364
0.028141502 0.40203935 0.07761382 0.05782245 -0.18621598 -0.08823371 -0.12345211 0.12881707
0.002108986 -0.30211172 0.4125482 0.3656343 -0.1934983 -0.043824214 0.3470061 0.16896103
0.0634703 -0.15753213 0.1990226 0.019929813 -0.010141447 0.0039998237 -0.12327706 -0.06457042
-0.2827236 -0.10011798 0.19853187 0.36170077 -0.044545066 -0.040623233 0.2496949 -0.2044044
0.15071368 0.3696871 0.09541575 -0.0154522015 0.1641692 0.067757584 0.1810212 -0.031598713
0.14411077 -0.27364114 0.36322793 -0.22602846 0.2137047 0.294326 0.032792106 0.028550528
0.06713839 0.03914062 -0.38096604 0.10212608 -0.11640818 0.090959646 0.027229682 0.116663404
0.060183324 0.061165385 0.105462015 0.22572082 0.15995711 0.07161572 0.1870331 -0.086035
0.35138303 -0.0678687 0.038312163 0.05105699 -0.07318572 -0.045259107 -0.0154206315 -0.32033503
0.1968791 0.11415708 0.006466948 -0.0330019 0.07059504 -0.050019644 0.067168035 0.22430842
0.3103962 -0.22958182 -0.2279839 0.023405297 0.35935995 0.07162886 0.06751343 -0.030007835
0.114140026 0.08622725 0.32643807 -0.10943431 0.28392342 0.22027639 -0.22274224 -0.093039155
0.20926394 -0.048010062 0.114612944 0.09141309 0.03289225 0.16837245 -0.19703956 0.07769426
-0.115517005 -0.18167466 -0.15596762 0.1659816 0.31540167 -0.2589615 0.092776 0.32821456
-0.10604547 0.13877769 0.47708824 0.0914972 0.13715674 -0.023927921 0.17350504 0.0734417
0.1919829 -0.028827606 0.110695876 -0.23664658 -0.17351323 0.09732939 -0.103401534 -0.31562665
-0.09795803 0.0038541819 0.25901484 0.034715183 0.30735797 -0.0014216307 0.13065222 -0.05464078
-0.29448354 -0.36056635 -0.16780776 -0.42510676 -0.17818467 -0.015917696 0.0036322991 0.23563482
0.21385622 0.44973296 -0.21876667 -0.05002488 0.03666685 -0.034984957 0.4553485 0.007920743
0.1301052 0.06285259 0.20229007 -0.3636237 0.12867449 0.25086212 0.060076207 0.6579635
-0.048688065 -0.17305937 0.10262102 0.011660113 0.23825599 -0.010191769 0.13582836 0.1151106
-0.08320427 0.5036174 -0.25773755 0.076914944 -0.19664647 -0.2821119 -0.06657726 0.008138553
0.28004515 -0.071265124 0.28798094 0.41745216 0.011312286 0.548016 0.15631059 -0.133783
-0.07146554 0.060476955 -0.14462696 -0.051621597 -0.07822671 -0.19748066 0.25941756 -0.0057905084
0.08302484 0.25545254 -0.03036961 -0.10447164 0.024564277 0.029637022 0.23292942 0.2802839
0.31610993 0.39973682 -0.32094187 0.20507672 -0.11725725 0.08770169 0.11736108 -0.08528978

bias f4 [16]
00000000: 7f1f e4bd a8bd 1d3e 0573 203e eddf e5bc
00000010: 5d9e 72bc 5e17 2f3e a657 4abd 2fb6 1e3e
00000020: 84ec 95bd 2346 a43c 151a 8c3d fe4c 213d
00000030: c12e 0b3e 8588 013e bd38 3fbd 75ab 88bd
-0.1113882 0.1540438 0.15668876 -0.028060878 -0.014808265 0.17098758 -0.049399994 0.15499185
-0.073205024 0.020052975 0.06840912 0.039380066 0.13592054 0.12649734 -0.04668497 -0.06673328

weight f4 [10, 16]
00000000: 6650 e93e b700 073f 5a51 ecbe e938 07bf
00000010: 8021 193f 4c1d efbe 6e95 11bf bd05 c83e
00000020: 4ebe 0e3f fa41 bd3e db82 2d3e fd43 58bf
00000030: 4b83 0abf 73b1 d2be 054d 683e 9a18 d7be
00000040: ed7a d0be 14bd 06bd 480e 623e 24fe 893f
00000050: 132c ecbe 2b65 ebbc 420e 15be acc2 a8be
00000060: b69c debe f717 00bf 1cba 8dbc 084b 73bc
00000070: 148b 12bf 5a91 de3e ef47 6fbe b200 6a3f
00000080: a75c f8bd bd1f e43e f7f2 8d3e 725e 51be
00000090: 3228 8b3f b538 53be 1e7b 2b3f f196 1dbf
000000a0: c167 fabe 3afc 4f3e a021 7b3e d76e 0bbe
000000b0: c66e 70be f309 e9be b742 a03d 86af d73d
000000c0: 8161 3fbe 5ff1 5cbe f0eb 3fbe e95e 523e
000000d0: de51 0cbf 6e9c 02bf 6054 503f a143 073f
000000e0: 02a3 debe 7961 283f 17da 5ebe 12e1 883e
000000f0: 3682 5dbe 22bb c83e e5b0 0b3d ed47 39bf
00000100: 9ea5 1abe b2c1 a53d 2fe3 edbe 3803 d1be
00000110: 508f 793e 08d5 723e e827 2abf b31b 15be
00000120: fa29 0ebf f132 86bf 42d1 843e cfe0 473f
00000130: 0ebe 473f 5e94 f13e 667f c73d be18 29be
00000140: 13d3 723f 5a0f ffbe f28a 003f 222f 50be
00000150: 7088 24bf 9bc2 98bd d567 fabe c249 83be
00000160: 0303 edbe ea2d 843f 2458 a9bc 5f19 aebe
00000170: dcff c0bc 6e53 463e bab7 7cba 2975 723e
00000180: cfa1 233e c8d3 443c da35 ef3e 753b 4cbf
00000190: f96e fd3d 2556 253f 0048 2abf 4161 c2be
000001a0: e193 5c3f 0c54 f83d 043f 7a3e 5f20 3d3e
000001b0: 2e81 a3bf 6333 e03e 907e 393c d462 b63d
000001c0: 042f 253f f992 28bf 3602 28bf 2dbc 483f
000001d0: aae0 973e 954a 0abe 941c 033f d13b e4bd
000001e0: 7fe0 063f 9ab6 43bf 85e6 89bd c93a 153c
000001f0: d81b 4abc d645 1fbf 7d48 423c 010b 69bd
00000200: 71a2 15bf d309 e53e 2576 c9be 7517 e1be
00000210: 8bb3 22bf 977e 533f 6f12 ac3e 68ce cdbe
00000220: 5014 6f3e ca6e 063f 7d9e bcbe 53e3 e4be
00000230: 2a46 063f e79c c33d 65e6 9bbd 5251 fc3e
00000240: 574d 3bbf 541e f4be 9c8e 283f 18cd 10be
00000250: 63f2 afbe 9886 823e 1469 10bf 8d3a 203f
00000260: 4531 243e a6c1 d53d d48d 7bbe ba6e 55be
00000270: 7c89 773f c9cc 0ebf 153c 15be 5ff3 c8be
0.45569152 0.52735466 -0.46155816 -0.52821213 0.5981674 -0.4670204 -0.56868637 0.39066878
0.5575913 0.369644 0.16944449 -0.8447874 -0.5410659 -0.41151008 0.2268563 -0.42010957
-0.40718785 -0.032895163 0.2207576 1.0780683 -0.46127376 -0.028734764 -0.1455622 -0.32961023
-0.43478936 -0.5003657 -0.017300658 -0.014849432 -0.57243466 0.4347027 -0.23367284 0.9140731
-0.12127047 0.44555464 0.2772443 -0.20446184 1.0871642 -0.20627101 0.66984737 -0.61558443
-0.48907283 0.2031106 0.24524546 -0.13616501 -0.23479757 -0.45515403 0.07825225 0.10531525
-0.18689539 -0.21576451 -0.18742347 0.20544018 -0.5481242 -0.5101994 0.81378746 0.5283757
-0.4348374 0.6577373 -0.21762882 0.26734215 -0.21631703 0.3920527 0.034104247 -0.72375375
-0.1510224 0.08093585 -0.4646239 -0.40822768 0.24371076 0.23714077 -0.6646714 -0.14561348
-0.555328 -1.0484296 0.259409 0.78077406 0.78024375 0.47183508 0.09741096 -0.16513345
0.94853324 -0.498164 0.50212014 -0.2033048 -0.6427069 -0.07458993 -0.48907343 -0.2564221
-0.4629136 1.0326512 -0.020671912 -0.34003732 -0.023559503 0.19367763 -0.00096404145 0.23677506
0.15979694 0.012013383 0.46720773 -0.79778224 0.12374682 0.6458457 -0.66516113 -0.37964824
0.86163145 0.12125406 0.24438101 0.1846938 -1.2773798 0.43789205 0.011321679 0.08905569
0.64524865 -0.6584926 -0.65628374 0.78412133 0.29663593 -0.13505013 0.5121548 -0.111442216
0.52686304 -0.764505 -0.06733421 0.009108254 -0.01233574 -0.62215936 0.011858103 -0.05689526
-0.5845099 0.44734058 -0.3934795 -0.4396321 -0.6355521 0.82615036 0.33607814 -0.40196538
0.23347592 0.525128 -0.36839667 -0.44704685 0.5245081 0.09551411 -0.07612304 0.49280792
-0.73164886 -0.4767939 0.65842605 -0.14140737 -0.34364614 0.25493312 -0.56410336 0.6258934
0.1603442 0.10437326 -0.24565822 -0.2084302 0.9669416 -0.5578123 -0.145737 -0.39248177

bias f4 [10]
00000000: 03bd 7ebe 13ee 8b3e 3e6c 1c3d e13d 7ebe
00000010: 5c24 9a3e 14a6 d73d 2a02 69bc 91ce 8fbe
00000020: f774 6c3e c950 393e
-0.2487679 0.27330074 0.038189165 -0.24828292 0.30105865 0.10529724 -0.014221707 -0.28087285
0.23091494 0.18097223
